…
lizing DistilBertModel from the checkpoint of a model trained on another task or with another architecture (e.g. initializing a BertForSequenceClassification model from a BertForPreTraining model).\n","- This IS NOT expected if you are initializing DistilBertModel from the checkpoint of a model that you expect to be exactly identical (initializing a BertForSequenceClassification model from a BertForSequenceClassification model).\n"]},{"output_type":"execute_result","data":{"text/plain":["DistillBERTClass(\n","  (l1): DistilBertModel(\n","    (embeddings): Embeddings(\n","      (word_embeddings): Embedding(30522, 768, padding_idx=0)\n","      (position_embeddings): Embedding(512, 768)\n","      (LayerNorm): LayerNorm((768,), eps=1e-12, elementwise_affine=True)\n","      (dropout): Dropout(p=0.1, inplace=False)\n","    )\n","    (transformer): Transformer(\n","      (layer): ModuleList(\n","        (0): TransformerBlock(\n","          (attention): MultiHeadSelfAttention(\n","            (dropout): Dropout(p=0.1, inplace=False)\n","            (q_lin): Linear(in_features=768, out_features=768, bias=True)\n","            (k_lin): Linear(in_features=768, out_features=768, bias=True)\n","            (v_lin): Linear(in_features=768, out_features=768, bias=True)\n","            (out_lin): Linear(in_features=768, out_features=768, bias=True)\n","          )\n","          (sa_layer_norm): LayerNorm((768,), eps=1e-12, elementwise_affine=True)\n","          (ffn): FFN(\n","            (dropout): Dropout(p=0.1, inplace=False)\n","            (lin1): Linear(in_features=768, out_features=3072, bias=True)\n","            (lin2): Linear(in_features=3072, out_features=768, bias=True)\n","            (activation): GELUActivation()\n","          )\n","          (output_layer_norm): LayerNorm((768,), eps=1e-12, elementwise_affine=True)\n","        )\n","        (1): TransformerBlock(\n","          (attention): MultiHeadSelfAttention(\n","            (dropout): Dropout(p=0.1, inplace=False)\n","            (q_lin): Linear(in_features=768, out_features=768, bias=True)\n","            (k_lin): Linear(in_features=768, out_features=768, bias=True)\n","            (v_lin): Linear(in_features=768, out_features=768, bias=True)\n","            (out_lin): Linear(in_features=768, out_features=768, bias=True)\n","          )\n","          (sa_layer_norm): LayerNorm((768,), eps=1e-12, elementwise_affine=True)\n","          (ffn): FFN(\n","            (dropout): Dropout(p=0.1, inplace=False)\n","            (lin1): Linear(in_features=768, out_features=3072, bias=True)\n","            (lin2): Linear(in_features=3072, out_features=768, bias=True)\n","            (activation): GELUActivation()\n","          )\n","          (output_layer_norm): LayerNorm((768,), eps=1e-12, elementwise_affine=True)\n","        )\n","        (2): TransformerBlock(\n","          (attention): MultiHeadSelfAttention(\n","            (dropout): Dropout(p=0.1, inplace=False)\n","            (q_lin): Linear(in_features=768, out_features=768, bias=True)\n","            (k_lin): Linear(in_features=768, out_features=768, bias=True)\n","            (v_lin): Linear(in_features=768, out_features=768, bias=True)\n","            (out_lin): Linear(in_features=768, out_features=768, bias=True)\n","          )\n","          (sa_layer_norm): LayerNorm((768,), eps=1e-12, elementwise_affine=True)\n","          (ffn): FFN(\n","            (dropout): Dropout(p=0.1, inplace=False)\n","            (lin1): Linear(in_features=768, out_features=3072, bias=True)\n","            (lin2): Linear(in_features=3072, out_features=768, bias=True)\n","            (activation): GELUActivation()\n","          )\n","          (output_layer_norm): LayerNorm((768,), eps=1e-12, elementwise_affine=True)\n","        )\n","        (3): TransformerBlock(\n","          (attention): MultiHeadSelfAttention(\n","            (dropout): Dropout(p=0.1, inplace=False)\n","            (q_lin): Linear(in_features=768, out_features=768, bias=True)\n","            (k_lin): Linear(in_features=768, out_features=768, bias=True)\n","            (v_lin): Linear(in_features=768, out_features=768, bias=True)\n","            (out_lin): Linear(in_features=768, out_features=768, bias=True)\n","          )\n","          (sa_layer_norm): LayerNorm((768,), eps=1e-12, elementwise_affine=True)\n","          (ffn): FFN(\n","            (dropout): Dropout(p=0.1, inplace=False)\n","            (lin1): Linear(in_features=768, out_features=3072, bias=True)\n","            (lin2): Linear(in_features=3072, out_features=768, bias=True)\n","            (activation): GELUActivation()\n","          )\n","          (output_layer_norm): LayerNorm((768,), eps=1e-12, elementwise_affine=True)\n","        )\n","        (4): TransformerBlock(\n","          (attention): MultiHeadSelfAttention(\n","            (dropout): Dropout(p=0.1, inplace=False)\n","            (q_lin): Linear(in_features=768, out_features=768, bias=True)\n","            (k_lin): Linear(in_features=768, out_features=768, bias=True)\n","            (v_lin): Linear(in_features=768, out_features=768, bias=True)\n","            (out_lin): Linear(in_features=768, out_features=768, bias=True)\n","          )\n","          (sa_layer_norm): LayerNorm((768,), eps=1e-12, elementwise_affine=True)\n","          (ffn): FFN(\n","            (dropout): Dropout(p=0.1, inplace=False)\n","            (lin1): Linear(in_features=768, out_features=3072, bias=True)\n","            (lin2): Linear(in_features=3072, out_features=768, bias=True)\n","            (activation): GELUActivation()\n","          )\n","          (output_layer_norm): LayerNorm((768,), eps=1e-12, elementwise_affine=True)\n","        )\n","        (5): TransformerBlock(\n","          (attention): MultiHeadSelfAttention(\n","            (dropout): Dropout(p=0.1, inplace=False)\n","            (q_lin): Linear(in_features=768, out_features=768, bias=True)\n","            (k_lin): Linear(in_features=768, out_features=768, bias=True)\n","            (v_lin): Linear(in_features=768, out_features=768, bias=True)\n","            (out_lin): Linear(in_features=768, out_features=768, bias=True)\n","          )\n","          (sa_layer_norm): LayerNorm((768,), eps=1e-12, elementwise_affine=True)\n","          (ffn): FFN(\n","            (dropout): Dropout(p=0.1, inplace=False)\n","            (lin1): Linear(in_features=768, out_features=3072, bias=True)\n","            (lin2): Linear(in_features=3072, out_features=768, bias=True)\n","            (activation): GELUActivation()\n","          )\n","          (output_layer_norm): LayerNorm((768,), eps=1e-12, elementwise_affine=True)\n","        )\n","      )\n","    )\n","  )\n","  (pre_classifier): Linear(in_features=768, out_features=768, bias=True)\n","  (dropout): Dropout(p=0.3, inplace=False)\n","  (classifier): Linear(in_features=768, out_features=500, bias=True)\n",")"]},"metadata":{},"execution_count":24}]},{"cell_type":"code","source":["\n","# Creating the loss function and optimizer\n","loss_function = torch.nn.CrossEntropyLoss()\n","optimizer = torch.optim.Adam(params =  model.parameters(), lr=LEARNING_RATE)"],"metadata":{"id":"sKvKak4BxTdA"},"execution_count":null,"outputs":[]},{"cell_type":"code","source
…
